YOLOv8-YogaPose-Keypoint-Classification/models/pose_classification.pth (torch, 32880 bytes, 4 tensors)

l1.weight f4 [256, 24]
0.21923652 1.4144387 0.48936346 1.2953107 -0.19360788 0.2488021 0.19237073 -0.015503825
-0.82704246 0.13587806 0.12090334 0.06431776 0.043848235 -0.7038389 0.4034077 -0.932778
0.15243152 -0.8404941 0.49390844 -1.1117827 0.062224526 -0.36965042 0.38044563 -0.2960133
0.2946707 0.34843692 0.09747375 0.41089994 -0.07252826 -0.2931286 0.14482188 0.1416952
-0.42899245 -0.21606258 0.32752877 0.30183443 0.1016373 -0.6101875 0.10236361 -0.4997752
0.15044817 -0.33063883 -0.073353134 -0.45594063 -0.2656629 -0.20557553 0.022306444 -0.033284217
0.026044283 -0.4650288 -0.6556234 -0.18129106 0.4329493 0.57212883 -0.7900133 0.8436158
0.43455645 -0.34015614 0.83351207 -0.77770376 0.25203437 -0.17926773 -0.40923497 -0.18874608
0.91840696 -0.46231946 -1.3972664 -0.33401084 0.12908892 0.47586828 -0.39307207 0.615357
0.15576659 -0.15382658 -0.18022628 -0.17209476 0.043776676 0.022248356 0.036978807 -0.16283455
0.034745235 -0.17394225 0.18051487 0.12599343 -0.14019246 -0.19408724 -0.080353655 -0.06371078
-0.16780171 0.04483402 -0.10702119 0.05097901 -0.0074140094 0.097979814 -0.07231224 -0.0791072
-0.010738875 -0.26985312 0.08738034 -0.12715055 -0.112147346 0.14288135 0.05951671 0.070216596
-0.014094099 -0.046103947 0.19747548 0.094574295 -0.20498835 -0.14678472 -0.0016563695 -0.16322576
0.04600066 -0.13225809 -0.2584401 0.05999657 -0.17518963 -0.19470944 -0.24840744 -0.101596616
0.90626025 -0.28158084 0.99612254 -0.17087902 0.20893198 -0.09264542 0.5409418 0.68284094
0.05625097 0.19130635 0.61138064 1.1790376 0.075405866 -0.32749316 0.18020815 -0.62085915
-0.44023278 -0.28425914 0.0042310786 0.28556713 -1.7464741 -0.4052789 -1.9641913 0.20734183
-0.0217794 0.15149406 0.359664 0.24255149 0.228457 0.18837288 0.44509435 0.29178056
0.21403062 0.82410145 0.6171758 0.7304144 -0.15923262 -0.52413255 0.12315212 -0.81934017
-0.59754544 -0.56842834 0.076073796 -0.31347892 -1.1582111 -0.2728854 -0.7341716 -0.003729409
0.051116467 0.12571438 -0.18691733 0.11022013 -0.10585293 0.06151952 0.13335395 -0.076614305
-0.17369412 0.11048175 -0.18396072 -0.05967013 -0.18910946 -0.10055766 -0.23505047 0.10863455
-0.0006448725 0.059156075 -0.019876558 0.02494573 -0.12938704 -0.123095706 0.075588286 8.541321e-05
0.5488298 0.54769826 -0.33105978 0.36842653 0.44089633 0.31951755 -1.0129955 0.096848115
-0.053133484 -0.36585584 -0.10200611 -0.3996535 0.605723 -0.48385164 0.09382799 -0.5749217
0.79480934 -0.8898104 -0.20546892 -0.8369645 -0.15341748 0.62391573 0.3500039 0.5684952
-0.2712062 0.0017270001 0.009483928 -0.100632794 0.007388849 0.023623737 -0.3498993 -0.055683523
0.058244377 0.1517341 0.08185212 0.103810154 -0.13249305 -0.0146864215 -0.087002896 -0.24672261
0.0049593695 -0.032980487 0.08997702 -0.32031482 0.004982273 0.12764525 -0.10473943 0.17078291
0.04631595 -0.26325208 -0.16620071 -0.54623836 0.24091448 0.41267994 0.09082933 0.34956196
0.029789448 -0.3647831 0.117896155 -0.6300728 -0.07874969 0.67136294 -0.30183467 0.681535
00000000: 8a7f 603e 540c b53f d98d fa3e becc a53f
00000010: 2541 46be fac5 7e3e d5fc 443e c103 7ebc
00000020: 0eb9 53bf 9e23 0b3e 2c9c f73d 08b9 833d
00000030: 359a 333d c92e 34bf 748b ce3e 8aca 6ebf
00000040: 0217 1c3e 9f2a 57bf 91e1 fc3e e54e 8ebf
00000050: 25df 7e3d d242 bdbe c5c9 c23e 0e8f 97be
00000060: 14df 963e 5366 b23e 51a0 c73d 7a61 d23e
00000070: b289 94bd f414 96be 304c 143e 8c18 113e
00000080: e6a4 dbbe 823f 5dbe dab1 a73e 0b8a 9a3e
00000090: 3727 d03d 3f35 1cbf 03a4 d13d 89e2 ffbe
000000a0: 160f 1a3e 7e49 a9be 2b3a 96bd 0d71 e9be
000000b0: f804 88be 6482 52be 01bc b63c 0855 08bd
000000c0: d25a d53c 4118 eebe efd6 27bf 5da4 39be
000000d0: 88ab dd3e 0977 123f 503e 4abf 34f7 573f
000000e0: 2f7e de3e f228 aebe 0c61 553f 9817 47bf
000000f0: a60a 813e f691 37be 3f87 d1be a746 41be
00000100: b81c 6b3f 23b5 ecbe a0d9 b2bf 7803 abbe
00000110: e32f 043e 02a5 f33e be40 c9be 0988 1d3f
00000120: 4781 1f3e b784 1dbe 3d8d 38be 9c39 30be
00000130: 2c4f 333d 2f42 b63c 1777 173d 1abe 26be
00000140: 0551 0e3d eb1d 32be e4d8 383e 6c04 013e
00000150: 9d8e 0fbe cebe 46be 7590 a4bd cc7a 82bd
00000160: 36d4 2bbe e1a3 373d ed2d dbbd 5ecf 503d
00000170: 38f1 f2bb a4a9 c83d 7118 94bd f502 a2bd
00000180: 1bf2 2fbc 302a 8abe 77f4 b23d c133 02be
00000190: 82ad e5bd 7d4f 123e cbc7 733d b8cd 8f3d
000001a0: f0ea 66bc 7ed7 3cbd 0337 4a3e 2bb0 c13d
000001b0: 77e8 51be bc4e 16be 8a1a d9ba a724 27be
000001c0: 306b 3c3d aa6e 07be 4352 84be f7be 753d
000001d0: e964 33be e961 47be 855e 7ebe e311 d0bd
000001e0: ac00 683f 5d2b 90be e301 7f3f e9fa 2ebe
000001f0: 44f2 553e e2bc bdbd 297b 0a3f aace 2e3f
00000200: 6b67 663d d0e5 433e 7183 1c3f b4ea 963f
00000210: 646e 9a3d 2fad a7be 7c88 383e a0f0 1ebf
00000220: 3166 e1be 6a8a 91be dca4 8a3b db35 923e
00000230: 778c dfbf b780 cfbe 9f6a fbbf 6b51 543e
00000240: b66a b2bc 4221 1b3e e125 b83e 6b5f 783e
00000250: a2f0 693e d2e4 403e 68e3 e33e 4364 953e
00000260: d82a 5b3e 50f8 523f 3cff 1d3f 70fc 3a3f
00000270: e00d 23be 8d2d 06bf 2e37 fc3d 47c0 51bf
00000280: bdf8 18bf 8584 11bf 94cc 9b3d 4f80 a0be
00000290: 4340 94bf a3b7 8bbe acf2 3bbf 1a69 74bb
000002a0: 805f 513d 45bb 003e 4267 3fbe 17bb e13d
000002b0: 6cc9 d8bd e4fb 7b3d f08d 083e f6e7 9cbd
000002c0: dfdc 31be 4144 e23d 3360 3cbe ab68 74bd
000002d0: e9a5 41be 2df1 cdbd 12b1 70be ca7b de3d
000002e0: a90c 29ba a44d 723d 2ad4 a2bc fd5a cc3c
000002f0: 097e 04be 9a19 fcbd 08ce 9a3d de1f b338
00000300: 1c80 0c3f f435 0c3f ab80 a9be 67a2 bc3e
00000310: 2abd e13e ce97 a33e d6a9 81bf 4e58 c63d
00000320: 7fa2 59bd 7551 bbbe 94e8 d0bd 629f ccbe
00000330: aa10 1b3f 67bb f7be e428 c03d 122e 13bf
00000340: a078 4b3f 9dca 63bf 7266 52be 4e43 56bf
00000350: 7919 1dbe f1b8 1f3f b633 b33e e788 113f
00000360: 8adb 8abe 825c e23a 7a62 1b3c 9118 cebd
00000370: 281e f23b 9186 c13c 0026 b3be 6814 64bd
00000380: a891 6e3d 2f60 1b3e 16a2 a73d 6b9a d43d
00000390: 42ac 07be 519f 70bc 932e b2bd daa4 7cbe
000003a0: 3582 a23b 8c16 07bd df45 b83d 4e00 a4be
000003b0: 5642 a33b 70b5 023e a081 d6bd b7e1 2e3e
000003c0: cbb5 3d3d fac8 86be 8530 2abe 47d6 0bbf
000003d0: 49b2 763e c94a d33e ba04 ba3d c9f9 b23e
000003e0: 0009 f43c dac4 babe 8a73 f13d 734c 21bf
000003f0: 8447 a1bd 71de 2b3f 138a 9abe 1479 2e3f

l1.bias f4 [256]
-0.2048347 -0.1313161 -0.02965135 -0.22889635 -0.047087204 -0.3067016 -0.010063338 -0.17015506
0.16290092 0.0060442965 -0.23474993 -0.1531658 0.016526232 -0.21475674 -0.030651702 -0.14358212
-0.12687069 -0.29827818 0.41500932 -0.2388653 0.5187723 -0.0859753 -0.123130456 -0.16697848
0.02587777 -0.21717282 -0.25203082 -0.2187385 -0.0016134197 0.06603936 -0.009563132 0.041036677
-0.0030396164 0.38559085 -0.06260118 0.33495617 0.19972432 -0.09486217 0.830196 -0.0017714379
-0.24618234 -0.20854877 0.4068661 -0.086666934 -0.00097122096 -0.29927406 -0.019233344 0.36189842
-0.0061469628 -0.10125454 -0.22897245 0.2511721 -0.22241591 -0.12080955 -0.32872486 0.6919928
-0.21718602 0.62834936 0.07016007 -0.022700617 0.008805645 -0.049372964 -0.14944963 -0.42306626
-0.11747075 0.14898737 0.24997126 -0.042063292 -0.015583548 -0.20084701 0.052403413 0.1844752
-0.13300583 -0.27144128 0.5508859 0.074819125 -0.15842159 -0.0070732133 -0.23816817 -0.029141886
0.18839729 -0.015501404 -0.13904598 0.31668785 -0.12525064 0.16250166 -0.18692388 -0.096988566
-0.078222185 -0.022600079 0.28911716 0.19492707 -0.0809015 -0.1777474 0.272765 -0.15550327
-0.015491934 -0.21129155 -0.071156055 -0.061973967 0.009210413 -0.102215394 -0.10285086 -0.17615286
0.3401506 0.15408805 0.034103017 -0.20589386 0.03219864 0.08129425 -0.13285136 0.38389587
-0.0042197285 0.13178666 0.5045037 0.248792 -0.21481176 0.085605554 0.5326014 -0.025845615
0.51337284 -0.15437478 -0.14210106 -0.060895287 -0.22719729 -0.0060520633 -0.1841505 -0.1705684
-0.26189038 0.0004906203 0.6132913 -0.08155657 0.04890885 -0.21381003 0.08665358 -0.012132507
-0.20963623 -0.1492278 0.26144105 -0.29770765 -0.07649681 -0.04864428 -0.1292825 -0.27678537
-0.016852792 -0.19151828 -0.01568222 -0.031694412 -0.13117875 -0.1128371 -0.0015500131 0.18479833
-0.34435412 0.1248672 0.4628347 -0.073636845 -0.02058512 -0.27986673 -0.099643566 0.19235156
-0.06238691 -0.32740998 -0.2884352 -0.03544241 0.0099067455 0.07948306 -0.1829705 0.0909598
-0.28030875 -0.13550745 -0.24996547 -0.10199779 0.046930734 -0.2550987 -0.22104894 -0.13009676
0.102117434 -0.086274646 -0.14160097 -0.16465826 -0.03810279 -0.45683953 0.004398105 0.0893995
-0.091908194 -0.16120395 -0.026682844 -0.08073566 -0.22062105 -0.2393051 0.5899645 -0.086078756
0.36916074 0.33181548 -0.147942 -0.23958175 0.002250854 -0.03192638 -0.0016171158 -0.26032284
-0.22627173 -0.02323852 -0.048891123 -0.14422467 0.401987 -0.00428053 -0.03157705 -0.09750663
-0.01387069 0.0011416301 -0.1353592 -0.4176727 0.12668401 -0.073550805 -0.10673495 -0.04138481
-0.5451323 -0.026842495 0.021366796 -0.14376213 0.35359296 0.06471739 -0.02324282 -0.4820957
0.036280517 -0.24782625 -0.079494245 -0.04567016 -0.13043548 -0.19739188 -0.27178216 0.00996149
-0.14263235 -0.013312795 -0.12241169 -0.2741601 -0.06359613 -0.09716963 -0.01184955 0.20923884
-0.44093338 0.23356287 -0.05583628 -0.043488696 -0.0020399487 -0.06798824 -0.023234863 0.04661909
-0.23706 -0.358568 -0.11109022 0.02627415 -0.22840355 -0.15111467 -0.16479056 -0.04531159
00000000: 30c0 51be ba77 06be 63e7 f2bc ce63 6abe
00000010: 83de 40bd fe07 9dbe b3e0 24bc 213d 2ebe
00000020: 80cf 263e 3c0f c63b 4962 70be 7fd7 1cbe
00000030: 0562 873c 31e9 5bbe 4719 fbbc 3107 13be
00000040: 64ea 01be ebb7 98be 1a7c d43e 1b99 74be
00000050: 43ce 043f d113 b0bd d22b fcbd 68fc 2abe
00000060: 9efd d33c 8d62 5ebe 2f0a 81be fcfc 5fbe
00000070: 6279 d3ba a53f 873d afae 1cbc 1316 283d
00000080: 4d34 47bb 2a6c c53e 0c35 80bd 607f ab3e
00000090: 8884 4c3e 1947 c2bd ba87 543f 982f e8ba
000000a0: 3917 7cbe cf8d 55be c150 d03e 6f7e b1bd
000000b0: 8999 7eba 733a 99be 3f8f 9dbc c04a b93e
000000c0: 766c c9bb 8a5e cfbd c177 6abe a199 803e
000000d0: ffc0 63be ff6a f7bd a04e a8be 7126 313f
000000e0: 0366 5ebe 81db 203f 15b0 8f3d a5f6 b9bc
000000f0: 8d45 103c 4e3b 4abd 5309 19be 249c d8be
00000100: 8194 f0bd 2590 183e 77f8 7f3e 8f4a 2cbd
00000110: 2352 7fbc d7aa 4dbe f6a4 563d 11e7 3c3e
00000120: ae32 08be 5afa 8abe dc06 0d3f c53a 993d
00000130: 4539 22be 6ac6 e7bb 5be2 73be f7ba eebc
00000140: 38eb 403e 9af9 7dbc 1262 0ebe e924 a23e
00000150: b441 00be d666 263e f968 3fbe f1a1 c6bd
00000160: f432 a0bd cd23 b9bc 2a07 943e f69a 473e
00000170: b0af a5bd 6a03 36be dba7 8b3e 403c 1fbe
00000180: e1d1 7dbc d05c 58be 44ba 91bd 6ad8 7dbd
00000190: 46e7 163c 4e56 d1bd 79a3 d2bd 6a61 34be
000001a0: 3828 ae3e 42c9 1d3e 9baf 0b3d d7d5 52be
000001b0: b9e2 033d 9a7d a63d 300a 08be 008e c43e
000001c0: a645 8abb 15f3 063e 2827 013f 54c3 7e3e
000001d0: 9df7 5bbe f751 af3d 9158 083f 2fba d3bc
000001e0: 676c 033f 6c14 1ebe f182 11be 566d 79bd
000001f0: 68a6 68be 6350 c6bb f391 3cbe 7ca9 2ebe
00000200: 7f16 86be f99c 003a a900 1d3f 2207 a7bd
00000210: a554 483d 04f1 5abe 6f77 b13d 6cc7 46bc
00000220: e1aa 56be 2ccf 18be 9adb 853e 236d 98be
00000230: 5caa 9cbd 393f 47bd a262 04be d0b6 8dbe
00000240: de0e 8abc 5e1d 44be 0078 80bc 00d2 01bd
00000250: b953 06be 2317 e7bd cf29 cbba c63b 3d3e
00000260: 2f4f b0be 60ba ff3d abf8 ec3e eace 96bd
00000270: 20a2 a8bc b14a 8fbe ed11 ccbd cff7 443e
00000280: 6b89 7fbd 48a2 a7be c7ad 93be 0f2c 11bd
00000290: e74f 223c 04c8 a23d 9e5c 3bbe 2249 ba3d
000002a0: a184 8fbe 77c2 0abe f3f6 7fbe 38e4 d0bd
000002b0: 713a 403d 4c9c 82be a75a 62be 1638 05be
000002c0: f222 d13d c3b0 b0bd d8ff 10be 2d9c 28be
000002d0: ac11 1cbd dfe6 e9be fb1d 903b 1617 b73d
000002e0: 5d3a bcbd a612 25be fb95 dabc bd58 a5bd
000002f0: 7cea 61be 650c 75be ea07 173f 0f4a b0bd
00000300: a302 bd3e b8e3 a93e 1c7e 17be eb54 75be
00000310: 1083 133b 3cc5 02bd 67f5 d3ba 0949 85be
00000320: c7b3 67be b55e bebc 0f42 48bd a2af 13be
00000330: 3dd1 cd3e b043 8cbb f056 01bd 8eb1 c7bd
00000340: e441 63bc c0a2 953a 9a9b 0abe 32d9 d5be
00000350: 74b9 013e cea1 96bd da97 dabd 1e83 29bd
00000360: ca8d 0bbf cbe4 dbbc 6b09 af3c 6136 13be
00000370: 230a b53e 8d8a 843d ba67 bebc 3fd5 f6be
00000380: e19a 143d 2ac6 7dbe e1cd a2bd a210 3bbd
00000390: e190 05be 1921 4abe 0827 8bbe 8435 233c
000003a0: 370e 12be e91d 5abc fbb2 fabd b65e 8cbe
000003b0: b03e 82bd df00 c7bd 9d24 42bc b542 563e
000003c0: 05c2 e1be 1b2b 6f3e 95b4 64bd 3421 32bd
000003d0: a9b0 05bb 6b3d 8bbd 0a57 bebc a9f3 3e3d
000003e0: dbbf 72be 3a96 b7be 4583 e3bd e33c d73c
000003f0: 9fe2 69be cebd 1abe dbbe 28be a598 39bd

l2.weight f4 [5, 256]
0.96240824 0.05308392 -0.20944989 -0.13648242 0.05611927 0.45834982 0.53518987 0.02888364
0.87995845 0.076463535 -0.64261335 0.040932663 -0.047270186 -0.028131144 0.1655566 0.27129376
-0.007175241 -0.09547891 -0.4349869 -0.06437201 -2.1672792 0.020163715 0.09734557 -0.23722865
-0.15100917 -0.031015458 -0.08166744 0.10139097 -0.25540584 -0.11882728 -0.5248485 0.4385956
0.030102564 0.03881225 -0.1308971 -1.9191368 -0.26564735 -0.01865179 0.88625425 0.03173694
-0.0049958234 -0.015759349 -0.09695162 0.041070156 -0.31294033 -0.17105068 -0.57653403 -1.1618824
0.02454074 -0.57765394 0.0007069582 -0.56740636 0.036275204 -0.041567788 -0.8799478 0.6310147
-0.029126942 -1.4725252 0.09430785 -0.4216674 -0.0921875 0.37978426 0.054113872 -0.11417977
0.032139108 -1.059847 -0.2330109 0.2964424 -0.61960053 0.16670369 0.4134991 0.07252095
-0.42808726 0.05278117 -2.1676672 0.24969889 -0.070126295 -0.44357935 -0.12085421 -0.06487839
1.1435966 0.038667575 1.0362344 0.20563525 0.62842685 -1.4963491 -0.041558526 0.31685922
-0.03790257 -0.07462098 -1.4928267 0.6312505 0.3651119 -0.019015502 -1.4767785 -0.024409242
0.04611792 -1.0216492 -0.022987902 0.16281953 -0.15465677 0.2216465 0.05589085 -0.51371187
0.049169935 0.16730984 -0.10311325 0.46544376 0.028627394 0.1527116 -0.11090542 0.5673013
-0.04444544 -1.0300949 0.35405698 -0.73490846 -0.53458685 1.1061611 -1.0938178 0.01755662
-1.9840991 0.03441066 -2.5737438e-05 -0.5982852 0.019355819 -0.0431978 0.03699571 -0.069515444
-0.097467996 0.07316148 0.13455868 -0.09114836 -0.77575105 0.047765773 0.8904343 0.07547796
-0.017098837 -0.07584463 0.69765604 -0.53246343 -0.27987882 0.013030822 0.00028602034 -0.059318274
0.006947734 0.036076047 0.14301972 0.0650603 0.03897074 -0.06600315 -0.08055742 -0.09239851
-0.6041466 -1.4258114 1.0843525 -0.59783757 -0.011849709 0.039591897 0.030817257 -0.3200037
0.21376432 0.23074168 -0.4094395 0.21925472 -0.18068616 -0.094119765 -0.0412205 0.18123668
0.24700318 0.027039774 0.07976931 0.03550343 -0.57903165 0.076644756 -0.009786869 0.0065736324
-1.2239821 0.05647922 0.012740016 0.019930728 0.37970978 -0.78496104 0.09941314 -0.7736901
-0.021323184 0.38999236 0.0379489 -0.017664552 0.0331032 -0.007006212 -0.5014765 0.24779029
1.0596709 0.2443849 -0.020527244 0.02199267 -0.063060135 0.16003218 0.1731837 0.018628906
0.15053603 -0.04363135 -0.07533823 -0.10073258 1.1395646 0.050490867 0.014632184 0.00094940513
-0.3385896 -0.47244027 -0.038905986 0.13632794 -0.49875727 0.40285072 0.06328158 -0.06894045
-0.5301341 0.14840749 -0.8812301 0.044464193 0.24820255 0.77994734 0.048173763 0.43726438
0.20854424 -0.07776714 0.04345245 0.020717338 -0.08215993 -0.5877548 0.033653345 -0.07823811
0.02121715 -0.10059106 -0.020828545 0.009062788 0.04949466 0.39361444 0.02847645 0.43582642
-1.3418286 -1.6812222 0.06703424 -0.027029134 -0.028089844 0.31542405 0.032955807 -0.29444692
-1.2730964 -0.0055688806 -0.0007484328 0.35930848 0.11066483 0.108115785 0.029061941 1.0344458
00000000: 6360 763f 866e 593d 087a 56be 0cc2 0bbe
00000010: 52dd 653d d4ac ea3e 3402 093f 629d ec3c
00000020: f544 613f ea98 9c3d 4f82 24bf 02a9 273d
00000030: 629e 41bd 4973 e6bc ab87 293e 04e7 8a3e
00000040: 491e ebbb 728a c3bd 9ab6 debe 79d5 83bd
00000050: b4b4 0ac0 602e a53c 1d5d c73d 11ec 72be
00000060: 26a2 1abe 2114 febc 4241 a7bd 12a6 cf3d
00000070: 8ec4 82be b85b f3bd 795c 06bf 9a8f e03e
00000080: a799 f63c 98f9 1e3d e409 06be 46a6 f5bf
00000090: ee02 88be a4cb 98bc 8fe1 623f 98fe 013d
000000a0: 01b4 a3bb c019 81bc 928e c6bd 2e39 283d
000000b0: b739 a0be e927 2fbe bc97 13bf 90b8 94bf
000000c0: a909 c93c 21e1 13bf 2953 393a 8b41 11bf
000000d0: 4f95 143d fc42 2abd 4244 61bf 2e8a 213f
000000e0: a09b eebc b57b bcbf 7924 c13d cae4 d7be
000000f0: cdcc bcbd 1573 c23e 82a6 5d3d 15d7 e9bd
00000100: 4ca4 033d 11a9 87bf 699a 6ebe 4cc7 973e
00000110: 249e 1ebf 5fb4 2a3e 27b6 d33e dd85 943d
00000120: 412e dbbe 1131 583d 0fbb 0ac0 11b1 7f3e
00000130: 609e 8fbd d51c e3be 6982 f7bd f6de 84bd
00000140: 6061 923f e461 1e3d 54a3 843f 0c92 523e
00000150: 95e0 203f 5e88 bfbf 4639 2abd 5f3b a23e
00000160: ba3f 1bbd e2d2 98bd f214 bfbf a299 213f
00000170: f2ef ba3e 66c6 9bbc 1407 bdbf e4f5 c7bc
00000180: 25e6 3c3d 67c5 82bf 2051 bcbc 2aba 263e
00000190: 585e 1ebe 4df7 623e ceed 643d 9f82 03bf
000001a0: 6a66 493d 4553 2b3e 0a2d d3bd a54e ee3e
000001b0: ff83 ea3c 6e60 1c3e 6122 e3bd a83a 113f
000001c0: 6c0c 36bd 26da 83bf f546 b53e f622 3cbf
000001d0: afda 08bf b096 8d3f 3902 8cbf e7d2 8f3c
000001e0: f6f6 fdbf 31f2 0c3d bae6 d7b7 3829 19bf
000001f0: 1890 9e3c 2df0 30bd d088 173d 1d5e 8ebd
00000200: 4d9d c7bd b0d5 953d c0c9 093e feab babd
00000210: 9f97 46bf 0ba6 433d 81f3 633f 3094 9a3d
00000220: dc12 8cbc 6e54 9bbd 9699 323f 864f 08bf
00000230: 474c 8fbe 3b7f 553c 00f5 9539 b8f7 72bd
00000240: d1a9 e33b 7ac4 133d c373 123e 563e 853d
00000250: c89f 1f3d a92c 87bd 4afb a4bd 6e3b bdbd
00000260: 5aa9 1abf fd80 b6bf 10cc 8a3f e20b 19bf
00000270: 4825 42bc 1d2b 223d 7974 fc3c 86d7 a3be
00000280: 09e5 5a3e 8c47 6c3e 0ea2 d1be 4f84 603e
00000290: cb05 39be ddc1 c0bd d4d6 28bd 1c96 393e
000002a0: 67ee 7c3e 8482 dd3c 185e a33d 0b6c 113d
000002b0: 6b3b 14bf edf7 9c3d 1b59 20bc a067 d73b
000002c0: 72ab 9cbf c156 673d 80bb 503c c445 a33c
000002d0: 5269 c23e 35f3 48bf 1e99 cb3d 8e10 46bf
000002e0: f5ad aebc 14ad c73e 4e70 1b3d 40b5 90bc
000002f0: 3997 073d 5e94 e5bb c460 00bf bdbc 7d3e
00000300: 4ca3 873f 0940 7a3e c028 a8bc f929 b43c
00000310: ac25 81bd 7adf 233e 1157 313e a69b 983c
00000320: 1e26 1a3e c9b6 32bd ee4a 9abd e24c cebd
00000330: 41dd 913f 83cf 4e3d d4bb 6f3c 80e1 783a
00000340: 9e5b adbe b1e3 f1be e25b 1fbd 8d99 0b3e
00000350: 1d5d ffbe 7342 ce3e c699 813d a730 8dbd
00000360: deb6 07bf 22f8 173e 4c98 61bf 1620 363d
00000370: cf28 7e3e a1aa 473f da51 453d 1ee1 df3e
00000380: 9f8c 553e 6144 9fbd 32fb 313d 68b7 a93c
00000390: 7743 a8bd 1977 16bf 17d8 093d 4d3b a0bd
000003a0: 97cf ad3c b002 cebd a0a0 aabc 177c 143c
000003b0: eaba 4a3d d587 c93e 7247 e93c a424 df3e
000003c0: 0ac1 abbf 4a32 d7bf 3f49 893d 346c ddbc
000003d0: ac1c e6bc 437f a13e abfc 063d bfc1 96be
000003e0: d3f4 a2bf 287b b6bb 7a32 44ba 48f7 b73e
000003f0: 3ea4 e23d cf6b dd3d 4f13 ee3c b868 843f

l2.bias f4 [5]
-0.21523067 0.051096387 0.016659304 0.46455333 -0.24746415
00000000: 6e65 5cbe 724a 513d 1879 883c efd9 ed3e
00000010: 3e67 7dbe
